birnn_model_optimized.pth (torch, 434119 bytes, 17 tensors)

rnn.weight_ih_l0 f4 [115, 1]
0.017133709 0.057890743 0.11180067 -0.020282524 -0.011464863 0.019038748 0.019591203 0.065118626
-0.008777381 -0.025733473 0.032899074 -0.018427752 -0.07630796 -0.0676583 0.057179615 0.021487346
-0.009302845 0.04877545 -0.06105171 -0.041774753 -0.04746284 0.047043044 -0.05380626 0.101335794
0.07057642 0.023027973 0.03573301 -0.062599525 -0.013763455 -0.118372835 -0.0010931701 -0.062654726
-0.026948288 -0.030341256 -0.056922346 -0.011596197 -0.01845872 -0.026009163 0.055440586 -0.096086465
0.0033499147 -0.15086833 0.1121181 0.031834766 0.04171607 0.043928735 -0.053614262 0.100855246
-0.084528066 -0.04730558 0.079282805 0.0034412413 -0.09358781 0.071331605 0.07906541 -0.07757005
0.011214332 0.0155933015 -0.07112625 0.06104633 0.043766133 -0.053354416 0.017223697 -0.010087775
0.026187513 -0.010133041 0.02786149 -0.019667983 -0.07686707 -0.020898921 -0.03291704 -0.06746844
0.04628253 -0.009912547 0.053779915 0.08570481 -0.011761753 -0.05298386 0.030252976 -0.03267267
-0.03893418 0.04118558 -0.1507548 -0.04402931 -0.049757134 -0.04887011 0.014788614 -0.0121103
0.021017833 0.017955193 -0.017346742 0.075243995 -0.10282288 -0.09104195 0.102022804 0.09374068
0.097175665 -0.029981997 0.077061266 0.099992216 -0.058676425 0.042559564 0.16863275 -0.20330073
0.05510628 0.005726279 -0.042365644 -0.0044506635 -0.09213755 0.12241993 -0.027749809 -0.09003197
0.0023957947 0.051224675 -0.013586539
00000000: fe5b 8c3c d81e 6d3d c0f7 e43d 8927 a6bc
00000010: 1fd7 3bbc 26f7 9b3c bb7d a03c ea5c 853d
00000020: 01cf 0fbc 01cf d2bc 2ec1 063d ccf5 96bc
00000030: 5947 9cbd 6f90 8abd 2c35 6a3d 3b06 b03c
00000040: f66a 18bc c4c8 473d 5c11 7abd 011c 2bbd
00000050: 6568 42bd 35b0 403d f463 5cbd 2489 cf3d
00000060: 5f8a 903d 29a5 bc3c c75c 123d 2e34 80bd
00000070: 1d80 61bc 756d f2bd b448 8fba 1f51 80bd
00000080: a8c2 dcbc 3a8e f8bc 6827 69bd fafd 3dbc
00000090: be36 97bc 2b11 d5bc ab15 633d fbc8 c4bd
000000a0: 3e8a 5b3b 3a7d 1abe 2d9e e53d 2c65 023d
000000b0: 78de 2a3d 9eee 333d a19a 5bbd 328d ce3d
000000c0: 0d1d adbd 7fc3 41bd 065f a23d 7386 613b
000000d0: f7aa bfbd 4e16 923d 0ced a13d 0cdd 9ebd
000000e0: 51bc 373c 0c7b 7f3c a4aa 91bd b70b 7a3d
000000f0: 1e44 333d 298a 5abd b618 8d3c 3247 25bc
00000100: 3287 d63c 0e05 26bc c83d e43c c01e a1bc
00000110: 7b6c 9dbd 3734 abbc 05d4 06bd e52c 8abd
00000120: c092 3d3d 3c68 22bc 5448 5c3d 0186 af3d
00000130: 5eb4 40bc 9b05 59bd 17d5 f73c c7d3 05bd
00000140: 7279 1fbd 36b2 283d 775f 1abe 1458 34bd
00000150: 23ce 4bbd 062c 48bd f14b 723c 486a 46bc
00000160: 972d ac3c c516 933c c11a 8ebc 8619 9a3d
00000170: cd94 d2bd 3474 babd 55f1 d03d 1dfb bf3d
00000180: 0904 c73d ce9c f5bc 4cd2 9d3d b8c8 cc3d
00000190: b156 70bd f052 2e3d 10ae 2c3e 112e 50be
000001a0: 1fb7 613d 83a3 bb3b 9987 2dbd dfd6 91bb
000001b0: 9db2 bcbd 4db7 fa3d 9153 e3bc ae62 b8bd
000001c0: c402 1d3b f7d0 513d 139a 5ebc

rnn.weight_hh_l0 f4 [115, 115]
-0.046107315 0.0595747 -0.028978605 0.011245994 -0.06333468 0.11837063 0.0954137 -0.14185007
0.1288962 -0.15708238 0.0817917 0.03838205 0.15403229 0.03802286 0.00020328868 0.0100917965
0.16666807 -0.06083172 -0.062271375 -0.022945879 0.13812329 0.08169312 -0.16577858 -0.058095284
0.16531608 -0.20900089 -0.14785755 -0.115315355 -0.108574495 -0.14532003 0.027956402 -0.2048364
0.12567195 -0.09346754 -0.09863415 0.057818893 0.18010932 -0.041040476 -0.06780919 0.0068902574
0.041959245 -0.11043809 -0.057813726 0.0043804003 -0.017582323 -0.083180875 -0.11465313 -0.102897435
-0.12835649 -0.0663412 0.0045755347 -0.0025954933 0.049528304 -0.043975297 -0.13318637 0.02156357
0.14382252 0.00092112797 -0.15830418 -0.06346661 0.0824715 0.05755267 -0.17655486 0.09178892
0.07192165 -0.08155587 -0.027132709 -0.034139305 -0.1639849 0.016546471 0.07439424 0.19148558
-0.26799336 -0.056004774 0.2796705 -0.07151415 -0.00334568 -0.038726564 -0.07059232 -0.23488331
-0.015383949 -0.036071297 -0.16939528 -0.074119814 -0.0045986697 -0.12161778 -0.0862805 -0.2344403
-0.20964359 0.13970777 -0.08739833 -0.102984026 0.068662226 -0.059075255 0.13212043 -0.089742295
-0.053099178 0.052155815 0.013074535 0.075952396 0.15334962 -0.079667434 -0.105736226 -0.2056137
0.023598298 -0.1327007 0.056467272 0.12365412 -0.08945788 -0.039711863 -0.119960584 -0.002816357
-0.033533443 0.022950131 0.018805623 -0.009036577 -0.0045373426 0.13345198 -0.10475529 0.13360037
0.0014213953 -0.0038308676 -0.06377805 -0.12864636 0.17949383 -0.113989376 -0.029006785 -0.08633157
-0.046201754 -0.02337699 -0.09822773 -0.11638955 0.17907004 0.13094334 0.13029243 -0.22849613
0.06316674 0.060320754 0.03451697 -0.18083523 0.15788703 0.05832705 0.03808437 0.06687873
0.13468723 -0.17166351 0.113606654 -0.15523598 0.14036897 0.19042426 -0.17676389 -0.10176665
0.13766743 0.07768804 0.04658811 -0.061579768 0.1612438 0.20891282 0.051588185 0.0005835274
0.12198994 0.09678956 0.10353048 -0.038427282 -0.029629085 0.03304774 -0.030160774 -0.07809514
-0.056120887 0.18523046 -0.098349996 -0.12210562 -0.04779383 -0.011413776 0.22726682 -0.0066851275
-0.08126608 0.23280112 -0.08458552 0.02197494 0.07312234 -0.08679286 0.056933854 0.070681825
-0.046535086 -0.05680217 -0.22517703 0.111414954 -0.01031991 -0.14881246 0.1418592 -0.035713986
-0.045622732 0.03848044 0.23280899 -0.028580548 0.13576396 0.045946248 0.10062438 0.075181015
0.08113839 0.20291081 0.08697846 0.100164615 -0.079949364 -0.08857888 0.013103347 -0.12145348
0.11965726 -0.14121105 0.062174402 -0.004876276 -0.10782401 0.027173787 -0.022451932 -0.04899387
0.064141914 0.124972284 0.14659962 0.0646526 0.050664756 -0.12261328 -0.10900436 0.018370535
0.08259509 0.045149665 0.064778455 0.12620102 0.06077061 -0.25075445 0.16001524 -0.2076114
-0.048654296 -0.20510474 0.2292471 -0.07810742 -0.2805813 0.15261532 -0.06061306 0.140058
0.07795701 -0.09098687 -0.09236653 0.08841458 -0.14502685 0.11790658 -0.22444701 0.013405857
0.114207216 0.17192836 0.011408015 0.020916814 0.10407294 0.097233765 -0.13924682 0.114160776
00000000: 06db 3cbd 9a04 743d 8a64 edbc 1e41 383c
00000010: 9db5 81bd 4d6c f23d 4268 c33d 2541 11be
00000020: 5efd 033e 34da 20be 6882 a73d 7f36 1d3d
00000030: a4ba 1d3e dcbd 1b3d e429 5539 1058 253c
00000040: 09ab 2a3e ae2a 79bd 4510 7fbd fff8 bbbc
00000050: 3170 0d3e b94e a73d dcc1 29be 52f5 6dbd
00000060: 9e48 293e 5404 56be f867 17be 752a ecbd
00000070: 4e5c debd c6ce 14be d304 e53c a2c0 51be
00000080: 26b0 003e e96b bfbd b400 cabd 81d3 6c3d
00000090: 946e 383e 0f1a 28bd 8bdf 8abd abc7 e13b
000000a0: 75dd 2b3d 5e2d e2bd 16ce 6cbd 7689 8f3b
000000b0: ce08 90bc bc5a aabd 43cf eabd e4bb d2bd
000000c0: e26f 03be e5dd 87bd 5eee 953b 2719 2abb
000000d0: 31de 4a3d 711f 34bd 0262 08be 15a6 b03c
000000e0: 3646 133e da77 713a 7e1a 22be c8fa 81bd
000000f0: d1e6 a83d 59bc 6b3d ccca 34be d4fb bb3d
00000100: a84b 933d c406 a7bd 6a45 debc a8d5 0bbd
00000110: a8eb 27be 778c 873c 025c 983d cc14 443e
00000120: 6d36 89be 4365 65bd f930 8f3e 0376 92bd
00000130: 3243 5bbb bf9f 1ebd b592 90bd 4085 70be
00000140: f50c 7cbc 7fbf 13bd f575 2dbe 21cc 97bd
00000150: 70b0 96bb be12 f9bd d5b3 b0bd 1e11 70be
00000160: cfac 56be 8e0f 0f3e e5fd b2bd 4ae9 d2bd
00000170: c89e 8c3d e5f8 71bd 944a 073e cfca b7bd
00000180: 867e 59bd 56a1 553d 9336 563c ee8c 9b3d
00000190: af07 1d3e ae28 a3bd 3c8c d8bd 668c 52be
000001a0: 3851 c13c b1e2 07be 3a4a 673d 5f3e fd3d
000001b0: b135 b7bd e8a8 22bd e5ad f5bd a192 38bb
000001c0: 5d5a 09bd ea01 bc3c 400e 9a3c 270e 14bc
000001d0: fdad 94bb a3a7 083e f189 d6bd 89ce 083e
000001e0: 1d4e ba3a 4b0f 7bbb 119e 82bd dfbb 03be
000001f0: 3bcd 373e 4373 e9bd a39f edbc 9bce b0bd
00000200: 0d3e 3dbd 1a81 bfbc 9f2b c9bd a55d eebd
00000210: 235e 373e 0316 063e 616b 053e e4fa 69be
00000220: 905d 813d e512 773d ab61 0d3d df2c 39be
00000230: 23ad 213e 58e8 6e3d 5bfe 1b3d b7f7 883d
00000240: 73eb 093e 8fc8 2fbe 9baa e83d 2ef6 1ebe
00000250: e2bc 0f3e 94fe 423e 9801 35be 096b d0bd
00000260: b1f8 0c3e e81a 9f3d 2dd3 3e3d 113b 7cbd
00000270: 181d 253e 3eed 553e 224e 533d dcf7 183a
00000280: ddd5 f93d 9b39 c63d ca07 d43d ed65 1dbd
00000290: b2b8 f2bc 115d 073d ba13 f7bc 58f0 9fbd
000002a0: 04df 65bd 0ead 3d3e b96b c9bd 8312 fabd
000002b0: 77c3 43bd d900 3bbc a2b8 683e ea0e dbbb
000002c0: d56e a6bd 6b63 6e3e 2c3b adbd ca04 b43c
000002d0: 2ac1 953d 74c0 b1bd 7933 693d a2c1 903d
000002e0: 939b 3ebd 64a9 68bd cf94 66be 862d e43d
000002f0: d714 29bc 4b62 18be 8a43 113e d448 12bd
00000300: e7de 3abd aa9d 1d3d 7b65 6e3e c121 eabc
00000310: b505 0b3e 2232 3c3d 2814 ce3d 81f8 993d
00000320: e22b a63d dac7 4f3e c321 b23d 1b23 cd3d
00000330: 7ebc a3bd d868 b5bd 6caf 563c 9abc f8bd
00000340: de0e f53d a199 10be 96aa 7e3d 2bc9 9fbb
00000350: d6d2 dcbd 909b de3c 1ded b7bc ccad 48bd
00000360: d65c 833d 78f1 ff3d 361e 163e 9568 843d
00000370: d985 4f3d ac1c fbbd ae3d dfbd ce7d 963c
00000380: 9d27 a93d dbee 383d 91aa 843d d73a 013e
00000390: 9aea 783d e362 80be 09db 233e 1598 54be
000003a0: ba49 47bd fa06 52be c0bf 6a3e c8f6 9fbd
000003b0: 5aa8 8fbe 3147 1c3e 6645 78bd 5d6b 0f3e
000003c0: eda7 9f3d 5357 babd aa2a bdbd b412 b53d
000003d0: eb81 14be 0179 f13d 70d5 65be 3da4 5b3c
000003e0: 79e5 e93d fd0d 303e afe8 3a3c bd59 ab3c
000003f0: 3224 d53d 7f22 c73d b896 0ebe 20cd e93d

rnn.bias_ih_l0 f4 [115]
-0.054931436 0.024670856 -0.14107533 0.031908717 0.06120856 -0.06952902 -0.10652466 0.09299977
0.075230755 -0.1967059 0.14897974 -0.024145372 0.03567957 -0.023645468 -0.031357296 0.12893146
0.044524353 -0.092953086 0.047993656 -0.021438735 0.1639525 0.10886475 0.030161265 -0.17590788
0.12400315 -0.15511735 -0.10892543 -0.078492075 -0.15633236 0.0047312886 0.03013866 -0.09775016
0.026270244 -0.057411473 -0.14923069 0.19693269 0.10679196 -0.10734689 -0.18431346 -0.03800473
-0.014915074 0.10632512 -0.059039056 -0.0061776657 -0.030660495 -0.17740938 -0.051516406 -0.12988998
-0.019771416 0.07744849 0.014755444 0.11597465 0.12031589 -0.0037806144 -0.06903353 0.0353977
0.10033949 0.026058763 -0.048451323 -0.19383511 0.05121421 0.056943953 -0.13496862 0.08100904
-7.331536e-05 0.011186976 0.013230439 -0.056392074 -0.15323493 0.105206236 0.058244564 0.20206696
-0.01774956 0.017871398 0.098106235 -0.17419654 0.04455168 0.06750323 -0.19014652 -0.08734783
-0.034649257 -0.048482064 0.05501082 -0.14183182 -0.019723559 -0.0069797197 -0.18599963 -0.11521489
0.0019142339 -0.033773866 -0.016821576 -0.005642436 -0.045871284 0.04530588 0.19200537 -0.22598489
-0.016503038 0.1710022 -0.049514126 0.014878581 0.036055475 -0.0536358 -0.11529344 -0.13048442
0.01652212 -0.18536443 0.12016511 0.042297207 -0.10794202 -0.20867284 -0.054175 -0.016114855
-0.18907574 0.0092980005 0.2338868
00000000: c9ff 60bd 891a ca3c 0d76 10be b7b2 023d
00000010: d4b5 7a3d 3b65 8ebd 9a29 dabd aa76 be3d
00000020: 9512 9a3d 456d 49be 258e 183e 84cc c5bc
00000030: be24 123d 24b4 c1bc 8270 00bd 9c06 043e
00000040: 2b5f 363d 305e bebd ff94 443d 49a0 afbc
00000050: 2ae3 273e 7bf4 de3d c214 f73c 3221 34be
00000060: 5df5 fd3d 15d7 1ebe 4c14 dfbd 74c0 a0bd
00000070: 9715 20be ed08 9b3b 5ae5 f63c 3c31 c8bd
00000080: b234 d73c 4b28 6bbd eecf 18be b9a8 493e
00000090: beb5 da3d b0d8 dbbd abbc 3cbe d9aa 1bbd
000000a0: 5b5e 74bc fcc0 d93d f0d2 71bd 046e cabb
000000b0: b82b fbbc ceaa 35be de02 53bd e101 05be
000000c0: aaf7 a1bc 509d 9e3d d1c0 713c 1e84 ed3d
000000d0: 2d68 f63d 2fc4 77bb 7461 8dbd 2efd 103d
000000e0: ca7e cd3d 3079 d53c e574 46bd b67c 46be
000000f0: fec5 513d 103e 693d 3735 0abe 11e8 a53d
00000100: e2c0 99b8 9449 373c 7cc4 583c 60fb 66bd
00000110: 9ee9 1cbe 5e76 d73d da91 6e3d a4ea 4e3e
00000120: 8667 91bc 0a67 923c eceb c83d 9460 32be
00000130: d37b 363d 223f 8a3d c5b5 42be 6be3 b2bd
00000140: 61ec 0dbd 2195 46bd 0753 613d 5c3c 11be
00000150: 4d93 a1bc 22b6 e4bb b076 3ebe c9f5 ebbd
00000160: 08e7 fa3a 7756 0abd 67cd 89bc 2fe4 b8bb
00000170: 87e3 3bbd a992 393d 0e9d 443e 9568 67be
00000180: 6131 87bc 331b 2f3e 53cf 4abd 4bc5 733c
00000190: e8ae 133d 36b1 5bbd f81e ecbd b59d 05be
000001a0: 6659 873c 2cd0 3dbe 2019 f63d d63f 2d3d
000001b0: b510 ddbd 55ae 55be 9be6 5dbd 4d03 84bc
000001c0: 129d 41be a456 183c 0580 6f3e

rnn.bias_hh_l0 f4 [115]
0.009153633 0.021888902 -0.09169362 -0.042574424 0.003306191 -0.035270788 -0.0436516 0.04343493
0.21220851 -0.16675812 0.09542536 -0.02395232 0.05834867 -0.013842302 0.05498544 0.091354825
0.05681358 -0.04636684 -0.05843003 -0.033830646 0.16951154 0.06973579 0.17089108 -0.095634
0.10222919 -0.122092456 -0.04240664 -0.07561594 -0.03847247 0.123200506 0.08491695 -0.020266907
0.063565016 -0.09867937 -0.09144953 0.115942955 0.10458842 -0.041263055 -0.1037778 -0.026737986
-0.011013158 0.15241957 -0.1927593 -0.008053585 0.094804674 -0.18059921 -0.015676057 -0.0069411765
-0.084467664 -0.05782674 -0.048957843 0.1651667 0.17754807 0.11127846 -0.18230744 -0.04722321
0.098367095 -0.0032032437 -0.063453786 -0.1113837 -0.013737912 0.04935857 -0.1456622 0.17410085
0.0144476555 0.051482033 0.15834405 -0.033248 -0.1277518 0.08257142 0.0324943 0.18662807
-0.1066913 -0.0656842 0.07884082 -0.023067428 -0.072393164 -0.03118376 -0.13022186 -0.10545476
0.12446318 -0.02439242 -0.035594646 -0.005989749 -0.07321725 -0.07820721 -0.114511825 -0.1903137
0.0142254885 0.04006466 0.0011525212 0.016045263 0.030075897 -0.09498584 0.06108736 -0.10180834
-0.17361952 0.23595245 0.1172816 0.019603575 0.009376081 -0.034652874 -0.18129922 -0.22311032
-0.0052932105 -0.2190288 0.11122204 0.031246757 0.038938243 -0.15028964 -0.09233615 0.011646855
-0.034898963 -0.11406976 0.0902804
00000000: 1ff9 153c 5b50 b33c ddc9 bbbd 8562 2ebd
00000010: aeac 583b 1a78 10bd 05cc 32bd d3e8 313d
00000020: 304d 593e a4c2 2abe 5f6e c33d a837 c4bc
00000030: 04ff 6e3d d3ca 62bc 6a38 613d 3d18 bb3d
00000040: 5bb5 683d 28eb 3dbd 5454 6fbd 0192 0abd
00000050: 6f94 2d3e a3d1 8e3d 12fe 2e3e c2db c3bd
00000060: 8a5d d13d 9c0b fabd 96b2 2dbd 88dc 9abd
00000070: 4f95 1dbd 8c50 fc3d f0e8 ad3d c906 a6bc
00000080: 602e 823d 6918 cabd e449 bbbd 8073 ed3d
00000090: 7432 d63d 7303 29bd 7589 d4bd 9f09 dbbc
000000a0: 8870 34bc e013 1c3e b262 45be 2ff3 03bc
000000b0: f428 c23d 00ef 38be 136b 80bc cf72 e3bb
000000c0: 62fd acbd bbdb 6cbd 0588 48bd 7621 293e
000000d0: 29cf 353e f6e5 e33d cdae 3abe 206d 41bd
000000e0: b074 c93d 83ed 51bb 0ff4 81bd 231d e4bd
000000f0: fb14 61bc 362c 4a3d 7928 15be 7e47 323e
00000100: dcb5 6c3c d3de 523d f124 223e 0e2f 08bd
00000110: 5ed1 02be 341b a93d be18 053d 6e1b 3f3e
00000120: f880 dabd 7085 86bd 4c77 a13d e7f7 bcbc
00000130: de42 94bd 1675 ffbc e158 05be aaf8 d7bd
00000140: 8de6 fe3d 9dd2 c7bc b1cb 11bd a845 c4bb
00000150: edf2 95bd 1a2b a0bd 2d85 eabd 98e1 42be
00000160: 0612 693c d71a 243d 3210 973a 5b71 833c
00000170: ba61 f63c f087 c2bd bd36 7a3d e480 d0bd
00000180: 51c9 31be 859d 713e 5631 f03d ad97 a03c
00000190: 229e 193c 2cf0 0dbd 81a6 39be 0877 64be
000001a0: ab72 adbb 1649 60be 62c8 e33d 33f9 ff3c
000001b0: b57d 1f3d 87e5 19be bc1a bdbd 73d2 3e3c
000001c0: 37f2 0ebd 689d e9bd eee4 b83d

rnn.weight_ih_l0_reverse f4 [115, 1]
0.015270448 -0.11327315 0.07850766 -0.038741607 0.4633551 -0.5668196 -0.16594984 -0.31905398
-0.18690582 0.12439191 -0.2492753 -0.28552508 -0.47209057 -0.4104639 -0.12766036 -0.15068652
-0.03038846 0.5026667 0.13545221 -0.3553587 -0.11215483 -0.030188823 -0.012360563 -0.05260113
0.028704993 -0.3630769 -0.024693502 0.44224426 0.031840764 0.08461095 0.23590589 0.015538915
-0.07902614 -0.0871566 0.20008925 -1.0833166 -0.1005787 0.09239626 0.37165964 -0.14247684
0.00012387615 0.04192581 -0.021999145 0.07536559 -0.70726967 0.02126851 0.32731995 -0.079175055
0.049548626 0.06772949 0.26292118 -0.011194467 0.089932114 0.0983929 0.19842792 -0.1381133
0.19764188 0.044159 -0.3586144 0.05965223 -0.3202176 0.35806015 -0.077211395 -0.08005581
-0.05866507 0.017646044 -0.15475169 -0.23171541 -0.1508617 0.06237025 0.014622004 0.56937134
-0.015050766 -0.15743908 0.15550774 0.5608017 -0.08727326 -0.09738848 -0.07796123 0.10482148
0.18932556 -0.5108021 -0.033965696 -0.45780563 0.24617831 -0.053143963 -0.3801012 0.13586986
-0.0897458 0.12913807 0.3596998 0.024897275 0.27710053 -0.55587554 -0.773419 -0.029035782
-0.20051403 0.7444309 0.009630896 0.072465755 -0.15333857 0.10135717 0.10356478 0.05630454
0.026881155 0.03570841 0.015975842 0.14399008 -0.020377534 0.089280576 0.011017318 0.19340011
0.048579402 0.014748463 -0.14948383
00000000: e730 7a3c c1fb e7bd a0c8 a03d 85af 1ebd
00000010: e13c ed3e 171b 11bf c1ee 29be 0b5b a3be
00000020: 3d64 3fbe 30c1 fe3d 0642 7fbe 5830 92be
00000030: dbb5 f1be 5328 d2be 66b9 02be 914d 1abe
00000040: 38f1 f8bc c4ae 003f fcb3 0a3e 93f1 b5be
00000050: 6eb1 e5bd 8d4e f7bc f583 4abc 4874 57bd
00000060: bc26 eb3c 37e5 b9be 074a cabc d76d e23e
00000070: 766b 023d 8148 ad3d 5091 713e ef96 7e3c
00000080: 75d8 a1bd 297f b2bd 32e4 4c3e 1eaa 8abf
00000090: 35fc cdbd 403a bd3d 2c4a be3e 73e5 11be
000000a0: c0e4 0139 66ba 2b3d 8d37 b4bc 4659 9a3d
000000b0: a00f 35bf 4c3b ae3c 7b96 a73e 8826 a2bd
000000c0: 80f3 4a3d c2b5 8a3d 9b9d 863e ff68 37bc
000000d0: 542e b83d 3782 c93d b030 4b3e 936d 0dbe
000000e0: a262 4a3e 11e0 343d 4e9c b7be e655 743d
000000f0: 90f3 a3be a953 b73e 0221 9ebd 4df4 a3bd
00000100: c94a 70bd 708e 903c 3a77 1ebe ce46 6dbe
00000110: 7d7b 1abe f277 7f3d 2191 6f3c 52c2 113f
00000120: 7d97 76bc b637 21be 6c3d 1f3e b390 0f3f
00000130: 53bc b2bd 9d73 c7bd 23aa 9fbd a5ac d63d
00000140: 8fde 413e edc3 02bf 9d1f 0bbd 8065 eabe
00000150: 2b16 7c3e 7cad 59bd a09c c2be 7821 0b3e
00000160: a5cc b7bd c53c 043e 922a b83e 5ff5 cb3c
00000170: 1fe0 8d3e dc4d 0ebf cafe 45bf 73dc edbc
00000180: 8d53 4dbe 0693 3e3f e8ca 1d3c ed68 943d
00000190: c904 1dbe 5994 cf3d c519 d43d 979f 663d
000001a0: de35 dc3c fb42 123d c5df 823c 2372 133e
000001b0: c9ee a6bc bcd8 b63d fb81 343c ae0a 463e
000001c0: 32fb 463d 8aa3 713c 4a12 19be

rnn.weight_hh_l0_reverse f4 [115, 115]
0.027997125 -0.060967356 0.07097295 0.0838493 0.092553705 -0.04949609 -0.11153772 0.087848276
-0.11552071 0.05117654 0.05758323 -0.060827475 0.08182303 -0.0042013875 -0.13119625 -0.07088115
0.006432356 0.15526865 0.12849276 0.043295205 -0.050355665 0.081390284 -0.03917926 0.10290751
-0.029980268 -0.09955863 -0.13203321 -0.0361966 0.08299951 0.19376016 -0.011269771 0.14046043
0.110175885 0.07787236 0.17226031 -0.04279723 0.21800822 0.12474182 -0.01311884 0.08304481
-0.18753004 0.0005435382 0.02420025 0.05793493 -0.005921205 -0.12138972 0.09592148 -0.08853537
-0.023086235 -0.0639621 -0.06357793 0.0493668 0.027372373 0.27621907 -0.058893293 0.06231433
-0.075896055 -0.048074722 -0.047593918 -0.1085224 -0.044876926 0.05863782 -0.1350279 -0.13370249
-0.11597736 0.077059165 0.09671163 -0.09087074 -0.05076102 0.07310601 0.08674487 0.05141582
-0.11468344 -0.025463168 -0.10018449 -0.008593122 0.048305254 0.03409454 -0.010583227 -0.017280493
0.0011675037 0.059595615 0.00817434 -0.14925349 -0.25178152 -0.04876236 -0.087303035 0.19048034
-0.0008576609 0.0064567863 0.119988285 0.052061494 0.16562504 0.060055118 -0.10098862 -0.07448631
0.072358474 0.01063497 0.10921434 0.0044762427 -0.028700618 -0.14802368 0.08229442 0.06615042
-0.033305716 -0.1776971 -0.027197931 -0.11951265 0.024242561 -0.079121396 -0.011652793 -0.037372492
0.08675567 -0.09157645 0.14094155 -0.053995125 -0.19444121 -0.064768754 0.0028975494 0.029266832
-0.030663228 -0.08024217 -0.10981924 -0.01104023 0.10572113 0.03934943 -0.100285575 0.012111516
-0.012923633 -0.0018277179 0.016612401 -0.0034002925 0.0781413 -0.11303204 -0.07222642 -0.15763415
0.062878236 0.04508092 0.18283892 0.11104758 -0.14432065 -0.057977602 0.051645175 -0.064717256
0.05819943 0.24573185 0.078150466 0.11320369 -0.015944792 0.09532183 -0.09032112 0.06275694
0.068001375 0.082413435 -0.101731665 -0.023150498 0.10052796 -0.029899927 -0.021271266 -0.06393801
-0.065696694 0.1145263 -0.037548088 0.14458326 0.0043422156 -0.088702954 -0.0387918 0.020161767
-0.027635654 -0.13166091 0.1488569 -0.10074875 -0.07370825 -0.03557338 0.14470404 -0.059354465
0.09974068 0.08720142 -0.102107055 0.172656 0.05861394 0.035900544 -0.07749179 0.07247931
0.058484863 0.053215116 0.13812159 0.10599204 -0.09892752 -0.08250153 0.0018148306 -0.10274017
-0.13607354 0.059351645 0.044204056 0.08673489 0.052822456 -0.045256462 0.13735433 -0.03858224
0.111754194 0.02093605 0.050896276 0.071247526 -0.06370738 0.12259846 0.054337595 -0.004196847
0.028143557 0.16218428 0.036337115 0.025336703 0.0036684922 -0.076410234 0.068377964 0.0101342155
-0.07266565 0.07304991 -0.103465445 0.030396918 -0.053719133 -0.0071712728 -0.0011133896 0.043836072
-0.08089584 0.06736017 -0.12505251 -0.06633658 0.07372884 0.06552254 0.026558837 0.12409306
-0.031505357 0.04950527 -0.017991208 -0.055847023 0.043345723 0.20806527 0.0047022616 -0.059225
-0.04430563 0.0258699 -0.123241656 0.018013598 -0.052983727 -0.027932303 0.031370368 0.073480554
0.081607096 0.11336757 0.15352912 -0.038852222 0.043455683 0.09471947 -0.11170236 0.021424262
00000000: 3a5a e53c e8b8 79bd 445a 913d 2fb9 ab3d
00000010: cc8c bd3d 69bc 4abd e36d e4bd cce9 b33d
00000020: 1f96 ecbd 7e9e 513d 65dc 6b3d 3b26 79bd
00000030: d592 a73d cbab 89bb 4f58 06be 232a 91bd
00000040: 83c6 d23b bffe 1e3e 9b93 033e 5056 313d
00000050: be41 4ebd f3af a63d 6f7a 20bd 2cc1 d23d
00000060: 2e99 f5bc 65e5 cbbd b733 07be e342 14bd
00000070: a6fb a93d 1069 463e d8a4 38bc dcd4 0f3e
00000080: e5a3 e13d 8b7b 9f3d 0265 303e 264c 2fbd
00000090: 8c3d 5f3e a478 ff3d 67f0 56bc 6613 aa3d
000000a0: e007 40be 3b7c 0e3a 9a3f c63c 2d4d 6d3d
000000b0: ab06 c2bb 2c9b f8bd 7b72 c43d 0852 b5bd
000000c0: 581f bdbc 90fe 82bd 2535 82bd d734 4a3d
000000d0: 073c e03c 966c 8d3e 183a 71bd 503d 7f3d
000000e0: 646f 9bbd 00ea 44bd d7f1 42bd fe40 debd
000000f0: ded0 37bd 362e 703d c144 0abe 4ee9 08be
00000100: 8a85 edbd 32d1 9d3d bf10 c63d 701a babd
00000110: caea 4fbd 9bb8 953d 4ba7 b13d 6599 523d
00000120: 27df eabd 2298 d0bc 872d cdbd 2aca 0cbc
00000130: bbdb 453d b7a6 0b3d 4565 2dbc d28f 8dbc
00000140: ec06 993a 881a 743d abed 053c e8d5 18be
00000150: 82e9 80be 0abb 47bd efcb b2bd 470d 433e
00000160: a6d4 60ba 7393 d33b 6bbc f53d 6f3e 553d
00000170: 9c99 293e 5bfc 753d 1fd3 cebd 478c 98bd
00000180: ae30 943d 4c3e 2e3c c5ab df3d 72ad 923b
00000190: 8f1d ebbc 8593 17be fa89 a83d df79 873d
000001a0: 936b 08bd 3bf6 35be 32ce debc 0cc3 f4bd
000001b0: 5698 c63c 660a a2bd 5beb 3ebc e613 19bd
000001c0: f5ac b13d 6f8c bbbd fb52 103e fe29 5dbd
000001d0: 991b 47be 7ba5 84bd d0e4 3d3b ffc0 ef3c
000001e0: 7331 fbbc 0256 a4bd e9e8 e0bd 15e2 34bc
000001f0: 5284 d83d de2c 213d 8662 cdbd 616f 463c
00000200: a5bd 53bc 0990 efba bb16 883c 71d7 5ebb
00000210: 8c08 a03d 587d e7bd 72eb 93bd d96a 21be
00000220: 4ec6 803d c5a6 383d 203a 3b3e ea6c e33d
00000230: cbc8 13be ec79 6dbd e489 533d 7b8a 84bd
00000240: 8762 6e3d 21a1 7b3e 5a0d a03d 56d7 e73d
00000250: a79e 82bc 1738 c33d 48fa b8bd b686 803d
00000260: 4e44 8b3d 60c8 a83d b158 d0bd 1da6 bdbc
00000270: 9ae1 cd3d b1f0 f4bc 1441 aebc eef1 82bd
00000280: fd8b 86bd c48c ea3d 06cc 19bd a20d 143e
00000290: 2549 8e3b e5a9 b5bd 27e4 1ebd 4a2a a53c
000002a0: 2b64 e2bc 1ed2 06be f16d 183e 5c55 cebd
000002b0: 5af4 96bd 64b5 11bd 4c2d 143e ab1d 73bd
000002c0: d744 cc3d a896 b23d 811d d1bd bccc 303e
000002d0: 2c15 703d 730c 133d 04b4 9ebd 0870 943d
000002e0: d38d 6f3d 18f8 593d bf6f 0d3e 5b12 d93d
000002f0: 839a cabd 90f6 a8bd 9cdf ed3a 7069 d2bd
00000300: dd56 0bbe b61a 733d 500f 353d 10a2 b13d
00000310: 5c5c 583d d75e 39bd 9da6 0c3e 6908 1ebd
00000320: 62df e43d 1482 ab3c 9d78 503d 39ea 913d
00000330: 0479 82bd e714 fb3d 1991 5e3d b485 89bb
00000340: 518d e63c a313 263e 3ad6 143d eb8e cf3c
00000350: 166b 703b f87c 9cbd bf09 8c3d fb09 263c
00000360: bad1 94bd 319b 953d b1e5 d3bd f502 f93c
00000370: 9808 5cbd fffc eabb 28ef 91ba 748d 333d
00000380: b8ac a5bd 21f4 893d c40d 00be 79db 87bd
00000390: 25ff 963d ae30 863d eb91 d93c 8124 fe3d
000003a0: c30b 01bd 0ac6 4a3d 4c62 93bc d9bf 64bd
000003b0: 498b 313d 100f 553e 6e15 9a3b ea95 72bd
000003c0: d279 35bd 1ded d33c 1f66 fcbd 4191 933c
000003d0: 7705 59bd 49d2 e4bc 377e 003d f97c 963d
000003e0: 9f21 a73d 422d e83d bd36 1d3e 8223 1fbd
000003f0: 96fe 313d 48fc c13d 35c4 e4bd ef81 af3c

rnn.bias_ih_l0_reverse f4 [115]
0.21824299 -0.13882987 -0.097996406 -0.036823057 -0.16320539 0.081603564 -0.12764558 -0.35148412
0.08557016 -0.5119198 0.08967686 0.25056583 -0.043726195 -0.11988421 -0.108184926 -0.09027808
-0.06464508 -0.21673213 -0.09190885 -0.24369489 -0.26855594 -0.09713026 -0.010351309 0.13936906
0.021737332 -0.2453013 0.12550874 -0.15266788 -0.10776049 -0.11449885 -0.30299297 0.19161804
0.093368724 0.0037780113 0.14467472 0.17250668 -0.1197861 0.11520103 0.33406648 -0.13078457
0.40916726 0.044560224 -0.096953414 0.02962388 -0.024053747 -0.056704663 0.08487897 0.11378002
-0.061048046 0.059821144 0.35976487 0.021729546 0.045823347 -0.26506355 0.13606103 -0.17517176
0.1846172 0.17228897 -0.29741186 0.13884425 0.05277256 -0.12657009 0.15562433 -0.05211959
0.0004293437 -0.010801852 -0.03687761 0.1296974 -0.18361942 -0.028505899 -0.06977939 0.36916402
-0.040889785 -0.038911927 0.43156773 0.101652734 -0.021942243 -0.05974754 0.0924436 0.040110093
0.25988725 0.10167948 0.17976172 -0.21198128 -0.06614661 0.124740005 -0.4255398 0.15575625
0.046454832 -0.09544047 -0.15166998 -0.004234972 0.409912 -0.20651536 -0.10913757 0.07131249
-0.0068129883 0.06752516 -0.033279404 0.10052021 -0.08675194 0.089143164 0.15092725 -0.392816
0.1982374 -0.0024096232 0.039403956 0.077454336 0.11984324 -0.019549234 0.14832307 -0.16959126
-0.03059461 0.12387765 -0.010035777
00000000: 177b 5f3e 6b29 0ebe 57b2 c8bd c6d3 16bd
00000010: 501f 27be c51f a73d 86b5 02be baf5 b3be
00000020: 683f af3d 2d0d 03bf 80a8 b73d 2a4a 803e
00000030: 3d1a 33bd da85 f5bd 0f90 ddbd b7e3 b8bd
00000040: a464 84bd 07ef 5dbe b53a bcbd 278b 79be
00000050: 2a80 89be 3bec c6bd 8998 29bc c3b6 0e3e
00000060: 7d12 b23c 4430 7bbe 5d85 003e f854 1cbe
00000070: 88b1 dcbd 607e eabd e521 9bbe 8537 443e
00000080: 1a38 bf3d 8398 773b 9c25 143e 97a5 303e
00000090: 6a52 f5bd 85ee eb3d c30a ab3e 64ec 05be
000000a0: 5f7e d13e c884 363d 838f c6bd c7ad f23c
000000b0: 5d0c c5bc 2643 68bd 07d5 ad3d 8005 e93d
000000c0: 840d 7abd 0407 753d 1a33 b83e 2902 b23c
000000d0: 43b1 3b3d 69b6 87be 9553 0b3e 3a60 33be
000000e0: 4b0c 3d3e 856c 303e 5e46 98be 302d 0e3e
000000f0: 0a28 583d 979b 01be fc5b 1f3e 5a7b 55bd
00000100: 8919 e139 40fa 30bc fa0c 17bd 65cf 043e
00000110: bb06 3cbe 3485 e9bc 7fe8 8ebd 1103 bd3e
00000120: 0c7c 27bd 1d62 1fbd 72f6 dc3e 4f2f d03d
00000130: 38c0 b3bc d6b9 74bd 1253 bd3d 7b4a 243d
00000140: f10f 853e 553d d03d 7513 383e 9f11 59be
00000150: e077 87bd b077 ff3d 5ae0 d9be 917e 1f3e
00000160: 6c47 3e3d 4b76 c3bd 604f 1bbe 85c5 8abb
00000170: fcdf d13e c378 53be 8583 dfbd 480c 923d
00000180: 7d3f dfbb a24a 8a3d fc4f 08bd 8add cd3d
00000190: 00ab b1bd b190 b63d ac8c 1a3e 2e1f c9be
000001a0: bffe 4a3e c5ea 1dbb 0b66 213d 61a0 9e3d
000001b0: 5f70 f53d b725 a0bc 01e2 173e 55a9 2dbe
000001c0: 8ca1 fabc 91b3 fd3d 1a6d 24bc

rnn.bias_hh_l0_reverse f4 [115]
0.10174968 -0.05913825 -0.094500266 0.025251921 -0.15595117 -0.0034559423 -0.11217626 -0.2260061
-0.039111484 -0.5823093 0.1270111 0.1427432 0.032753482 -0.031721763 -0.22994953 -0.18017633
-0.12705167 -0.080705404 -0.044467233 -0.09949039 -0.118540935 0.0074497717 0.02356669 0.0526021
-0.052934416 -0.29382896 0.10465975 -0.07833053 -0.06677481 -0.10161222 -0.28617874 0.066291995
0.18645424 0.053433068 0.13762957 0.104491696 -0.03810794 0.12564842 0.30545387 -0.07602329
0.51076585 0.060932547 -0.11626947 0.011763536 0.0016202121 -0.06538722 0.0081744315 -0.02842261
-0.17074077 -0.09948307 0.32094407 0.03561907 0.038289573 -0.26935914 0.11649278 -0.18384285
0.18112524 0.085318595 -0.22916637 0.13577488 -0.03871361 -0.12624167 0.124037184 0.033759877
-0.066925734 0.041761003 0.036713365 0.017608313 -0.17662261 0.00074802816 0.0658426 0.25592
-0.16534516 0.028475447 0.456671 0.023982247 0.03780532 -0.0312059 0.15329303 0.1173826
0.22730799 0.16189621 0.08972236 -0.11718174 -0.14120865 0.077380486 -0.32076102 0.10891182
0.18032996 -0.15135351 -0.19529885 0.09071677 0.4822421 -0.3028785 -0.054578528 0.0036766601
0.1584953 0.142806 0.02385457 0.16232653 -0.033149417 0.026845092 0.23482667 -0.311351
0.08744227 -0.006633488 0.13805279 0.1578924 0.048143346 0.092132404 0.17152989 -0.2191392
-0.07944742 0.108956315 -0.021365905
00000000: 2362 d03d f33a 72bd 5b89 c1bd 1edd ce3c
00000010: aab1 1fbe 177d 62bb abbc e5bd 256e 67be
00000020: 5d33 20bd 3912 15bf 330f 023e 462b 123e
00000030: 8428 063d aeee 01bd e477 6bbe 2580 38be
00000040: d519 02be e048 a5bd 4623 36bd 9ec1 cbbd
00000050: 97c5 f2bd 371d f43b ee0e c13c 4d75 573d
00000060: c2d1 58bd c070 96be da57 d63d c26b a0bd
00000070: 3bc1 88bd 111a d0bd 0586 92be 19c4 873d
00000080: dced 3e3e a2dc 5a3d c4ee 0c3e beff d53d
00000090: 1217 1cbd fba9 003e 7364 9c3e 19b2 9bbd
000000a0: 8dc1 023f 6894 793d b01e eebd d9bb 403c
000000b0: 4c5d d43a bce9 85bd 0dee 053c 89d6 e8bc
000000c0: abd6 2ebe c8bd cbbd c852 a43e 4de5 113d
000000d0: 87d5 1c3d 71e9 89be c493 ee3d 4d41 3cbe
000000e0: e578 393e 84bb ae3d 97aa 6abe 9208 0b3e
000000f0: 2a92 1ebd 7f45 01be 3507 fe3d cc47 0a3d
00000100: 5c10 89bd 960d 2b3d c160 163d 4f3f 903c
00000110: 8fdc 34be 5217 443a 7cd8 863d f207 833e
00000120: 3e50 29be 5745 e93c c8d0 e93e 6b76 c43c
00000130: c0d9 1a3d 84a3 ffbc d9f8 1c3e 4a66 f03d
00000140: 6dc3 683e 1fc8 253e 5bc0 b73d fbfc efbd
00000150: 0099 10be a979 9e3d ca3a a4be 290d df3d
00000160: 6ba8 383e 6afc 1abe 6cfc 47be b7c9 b93d
00000170: 70e8 f63e e412 9bbe bc8d 5fbd 1ff4 703b
00000180: 984c 223e bc3b 123e a96a c33c ed38 263e
00000190: afc7 07bd 3dea db3c 6776 703e 6669 9fbe
000001a0: ef14 b33d bb5d d9bb b65d 0d3e 8cae 213e
000001b0: f531 453d eaaf bc3d 88a5 2f3e 0766 60be
000001c0: 54b5 a2bd 7d24 df3d 8d07 afbc

rnn.weight_ih_l1 f4 [115, 230]
-0.15986641 -0.05620326 -0.03376845 0.14495343 0.033030394 0.038343173 -0.08882747 -0.11691791
0.32142386 -0.16948317 0.18586393 -0.0529599 0.039154276 0.092660874 0.11032031 -0.12150903
-0.026187113 -0.09059308 -0.11425289 -0.0057069254 -0.04585114 -0.028497782 0.20492917 -0.20193598
0.18456928 -0.17325363 -0.06772299 -0.04227048 -0.34017015 -0.02959204 0.07961857 -0.11323193
0.08809491 -0.0673432 -0.023098776 0.18581226 0.038524225 -0.14735106 -0.17430638 -0.08353018
0.03283658 0.06257796 -0.06305346 0.16669492 -0.029477904 -0.19741812 -0.20650439 -0.05170556
-0.058665916 0.029845752 -0.10764642 0.016202632 -0.00585794 0.06700576 -0.1015355 0.1713187
0.051881723 0.13467628 0.13486516 -0.14876056 0.04446722 0.11847908 -0.16937867 0.2111706
-0.09981364 0.10185284 -0.016888278 -0.16776718 -0.20216984 0.14657378 0.21028335 0.03436338
-0.10006646 0.018915378 -0.01809122 -0.13038847 -0.08581703 -0.113891765 -0.095684186 -0.12469486
-0.13097478 -0.09098083 -0.069308855 -0.06631032 -0.13289887 -0.06894379 -0.0074246028 -0.062111944
0.012477773 -0.030922959 0.031841207 0.021920204 0.11137397 -0.102376334 0.21188375 -0.053706642
-0.13364427 -0.047405835 0.04766654 0.08851943 -0.03435765 -0.09961611 0.1140539 -0.22426851
0.115954906 -0.10649997 0.09767127 0.009622463 -0.043177556 0.036703043 -0.052133676 -0.0040129046
-0.06671068 -0.18632138 0.11040516 -0.028437484 0.0448068 -0.016948082 0.09481985 -0.04363569
-0.14250566 -0.05177197 -0.035917055 0.027016107 -0.059724186 -0.0187172 -0.14861642 -0.09471171
-0.084663704 -0.19308412 -0.009572958 0.07169689 0.09808768 -0.010625191 0.07359711 -0.0034968774
0.0034043423 0.008408362 0.11211944 0.047898103 0.13140692 0.013554155 -0.017882941 -0.040228814
0.12196471 -0.12860896 0.030844608 -0.008474211 -0.04004985 0.11281439 0.070085734 -0.009384789
0.09991265 0.02238047 -0.09705794 0.03559146 0.11250722 -0.09373791 0.028508818 -0.094733834
-0.045096003 0.07399745 -0.0658003 -0.019921612 -0.016817046 0.033075325 0.08348923 0.019705964
0.04332467 -0.044454034 -0.14288886 0.010383879 -0.0041014357 -0.049832575 -0.048170872 0.095873475
0.0029949655 0.05219584 -0.07837714 -0.059898816 -0.013568042 0.07051895 0.061931055 -0.07042171
0.13476148 -0.06269509 -0.04588457 -0.04198805 -0.0013157087 -0.019574722 -0.08140907 0.012289632
0.07358147 0.04292282 -0.03263615 -0.055638414 0.008126049 -0.005981198 -0.08466309 -0.061396662
-0.041624475 -0.103555165 0.052651975 -0.04147867 -0.0045464807 -0.004252399 0.045029093 0.04475539
-0.11536386 -0.08979022 -0.13536733 -0.09772675 -0.053311516 0.0017675313 -0.20303807 0.09270721
-0.055641156 0.009939888 0.06962665 -0.05173669 0.074401475 -0.0911341 -0.04874336 0.026465032
0.10502198 -0.10157566 -0.00047508403 2.6421496e-05 -0.005608394 0.061501108 -0.10309625 -0.0027775762
-0.1603383 0.055661116 0.015198659 -0.07319333 0.023203924 -0.20219654 0.086851604 -0.2073142
0.12302257 -0.014237262 0.027455121 -0.0037623078 0.064980604 -0.05842077 0.002329329 -0.050364584
-0.05241154 -0.07611325 0.10984326 0.09608952 0.05471813 -0.10219244 0.18471992 -0.0055918773
00000000: 05b4 23be 6435 66bd c950 0abd ac6e 143e
00000010: e14a 073d bb0d 1d3d 2deb b5bd a872 efbd
00000020: ab91 a43e ff8c 2dbe 1d53 3e3e 7bec 58bd
00000030: 3c60 203d fcc4 bd3d 9def e13d bad9 f8bd
00000040: 5b86 d6bc dd88 b9bd 6bfd e9bd 2901 bbbb
00000050: 68ce 3bbd 2e74 e9bc f4d8 513e 4ec8 4ebe
00000060: bbff 3c3e 6669 31be 5ab2 8abd d023 2dbd
00000070: c82a aebe 026b f2bc 100f a33d 24e6 e7bd
00000080: 1b6b b43d 3beb 89bd a539 bdbc 9245 3e3e
00000090: 94cb 1d3d 32e3 16be 5f7d 32be df11 abbd
000000a0: a67f 063d e028 803d 2c22 81bd 13b2 2a3e
000000b0: a57b f1bc fa27 4abe e375 53be 36c9 53bd
000000c0: ac4b 70bd 147f f43c ba75 dcbd 62bb 843c
000000d0: f6f3 bfbb 513a 893d d8f1 cfbd 2b6e 2f3e
000000e0: ee81 543d 94e8 093e 181a 0a3e b054 18be
000000f0: 4223 363d 29a5 f23d 9a71 2dbe 1b3d 583e
00000100: 186b ccbd 3998 d03d 4959 8abc 29cb 2bbe
00000110: 9c05 4fbe 7017 163e 8554 573e 9ec0 0c3d
00000120: a5ef ccbd 6cf4 9a3c 0a34 94bc 8e84 05be
00000130: d7c0 afbd 1640 e9bd 12f6 c3bd 0560 ffbd
00000140: 411e 06be 2854 babd cdf1 8dbd b4cd 87bd
00000150: a416 08be 6732 8dbd 154a f3bb 1869 7ebd
00000160: 936f 4c3c 2552 fdbc ed6b 023d 0092 b33c
00000170: 0918 e43d afaa d1bd 0ef8 583e 7ffb 5bbd
00000180: 0bda 08be 9f2c 42bd fd3d 433d ad49 b53d
00000190: 9bba 0cbd 8803 ccbd 1795 e93d a5a6 65be
000001a0: c479 ed3d a81c dabd e007 c83d 89a7 1d3c
000001b0: f3da 30bd ee55 163d 1f8a 55bd af7e 83bb
000001c0: 9c9f 88bd 08cb 3ebe 1a1c e23d baf5 e8bc
000001d0: 5687 373d b4d6 8abc e930 c23d 56bb 32bd
000001e0: 01ed 11be d80e 54bd c31d 13bd e250 dd3c
000001f0: 59a1 74bd d054 99bc e72e 18be 37f8 c1bd
00000200: 2a64 adbd d8b7 45be e5d7 1cbc d2d5 923d
00000210: 32e2 c83d 4815 2ebc 15ba 963d de2b 65bb
00000220: 631b 5f3b 3ac3 093c e19e e53d cd30 443d
00000230: 898f 063e 3f12 5e3c 3f7f 92bc f8c6 24bd
00000240: a2c8 f93d 11b2 03be d5ad fc3c 6bd7 0abc
00000250: 500b 24bd 3b0b e73d 1c89 8f3d a8c2 19bc
00000260: 019f cc3d 3f57 b73c 50c6 c6bd 5ac8 113d
00000270: 2f6a e63d a9f9 bfbd 538b e93c d003 c2bd
00000280: 96b6 38bd fa8b 973d 4fc2 86bd a632 a3bc
00000290: e7c3 89bc fe79 073d 67fc aa3d 676e a13c
000002a0: 3675 313d 6f15 36bd 7551 12be 2521 2a3c
000002b0: 5665 86bb 3e1d 4cbd d24e 45bd 5059 c43d
000002c0: 2f47 443b 4ecb 553d 3284 a0bd 7658 75bd
000002d0: 7e4c 5ebc 3d6c 903d 6bab 7d3d 4239 90bd
000002e0: eafe 093e 4966 80bd 75f1 3bbd a9fb 2bbd
000002f0: dc73 acba 2b5b a0bc ccb9 a6bd 745a 493c
00000300: e2b1 963d d7cf 2f3d 7cad 05bd 1be5 63bd
00000310: 1f23 053c edfd c3bb d863 adbd 117b 7bbd
00000320: 6d7e 2abd bb14 d4bd 99a9 573d 8ae5 29bd
00000330: a5fa 94bb b557 8bbb 6d70 383d 6e51 373d
00000340: e343 ecbd efe3 b7bd bc9d 0abe f624 c8bd
00000350: 2d5d 5abd 82ac e73a 36e9 4fbe 47dd bd3d
00000360: fbe7 63bd e9da 223c 6b98 8e3d dae9 53bd
00000370: cd5f 983d 84a4 babd 1ea7 47bd 32cd d83c
00000380: c415 d73d e606 d0bd b314 f9b9 bba3 dd37
00000390: 9ec6 b7bb 96e8 7b3d 2024 d3bd ff07 36bb
000003a0: b92f 24be e9fc 633d cc03 793c 62e6 95bd
000003b0: 2816 be3c 9c0c 4fbe 41df b13d 2c4a 54be
000003c0: 42f3 fb3d 6843 69bc 90e9 e03c 0d91 76bb
000003d0: 8d14 853d 9e4a 6fbd a8a7 183b 184b 4ebd
000003e0: 7cad 56bd 43e1 9bbd 81f5 e03d 95ca c43d
000003f0: 1e20 603d 454a d1bd 3827 3d3e 113c b7bb

rnn.weight_hh_l1 f4 [115, 115]
0.10250614 0.14235254 -0.014962949 -0.014806481 -0.01167327 0.05797186 0.011113249 -0.16994952
-0.10962649 0.12738067 -0.026274817 -0.09766416 0.06364357 0.002026397 -0.09337919 0.09252274
0.030221926 0.057784148 -0.025327563 -0.0687667 -0.03684451 -0.024803054 -0.13633706 0.07638443
0.042833924 0.056670725 0.14991654 -0.07811513 0.004923888 0.12238754 0.085080706 0.058280654
0.07146231 -0.08919404 -0.19955534 -0.059962526 0.029234897 0.01683493 0.12823832 -0.19613826
-0.18266399 -0.08755948 0.11214392 0.2489257 -0.011142563 -0.029749434 0.031030241 -0.09072844
-0.039150964 -0.16141726 0.04088937 -0.05823412 0.06650011 0.008215592 0.0678993 0.076672584
0.024249367 0.016044792 -0.14562051 -0.14248918 0.045124993 0.11744983 0.050112993 -0.05796522
-0.062795 0.003101892 0.011163103 0.13229643 0.1466012 -0.10179366 0.17338035 -0.020284608
-0.020938084 0.0735258 0.19880046 0.2253163 -0.061688527 0.14159034 -0.067315 0.09985398
-0.11406713 0.012134933 -0.071737744 -0.124015614 0.021506168 0.13538797 -0.061055887 0.0018203662
0.08282544 -0.064756125 0.15418644 0.0011341656 -0.1294204 -0.07811371 0.08333137 0.009892932
0.0074895616 0.09575418 -0.0035713166 0.093687825 0.014168765 -0.016342727 0.026080878 0.055533852
-0.022459287 -0.080425635 -0.033570323 0.18724741 -0.012658478 -0.011642097 -0.08326497 0.015046005
0.041261178 0.05441361 -0.034065988 0.03232845 0.07541444 0.0034043677 -0.03177835 -0.13348824
-0.036413454 -0.06475213 -0.1389418 -0.09424703 0.049894348 -0.1326267 -0.13745952 -0.042310644
0.017734671 -0.031264674 0.09511696 0.03668888 -0.08381738 0.1499035 0.02473142 0.03813352
-0.058013946 -0.19856073 0.025039209 0.056623615 -0.03208961 0.17425054 0.016390275 0.025605163
0.073318586 0.16661122 0.06387045 0.077126026 -0.21496713 -0.022219632 0.034513947 -0.01788231
0.0030642794 0.07803752 -0.149702 -0.013523973 -0.13191877 0.0025827242 0.06635968 0.15810958
0.0032179113 0.16608092 -0.07503107 0.059412874 -0.18844798 0.07456011 -0.051544234 0.20791726
-0.06399687 -0.059406225 -0.017104818 -0.03079953 0.023539243 -0.11675962 -0.050916705 0.15244326
-0.06863756 0.057662703 -0.123158984 -0.19567822 0.08296477 0.06499573 0.073062405 0.11205526
-0.08542959 0.16163318 -0.0036704047 -0.15374656 0.11486482 0.14225501 0.13290092 -0.06444706
0.039560776 -0.049507078 0.15202114 0.015502264 0.105996765 -0.07019467 -0.25602815 0.12956828
0.026968312 0.037430193 0.017594563 -0.026879843 -0.13064092 0.08298514 -0.08735535 -0.060230054
-0.19079632 -0.047120474 0.07172539 0.07841695 0.113155395 0.05280386 0.19594023 0.05597712
-0.123814195 0.11417891 -0.050041378 0.09923634 -0.08480475 -0.047107555 0.11415809 -0.1245344
0.120532945 -0.066631004 0.01441949 0.011303186 -0.12889409 -0.06579109 0.02314652 0.11866604
0.034552153 -0.14077497 -0.09185182 0.053238373 -0.089093916 0.039614927 -0.052103657 0.15451181
-0.23396422 0.034372628 -0.04097509 -0.22076912 0.021934245 0.06064736 -0.05699303 -0.17621957
0.0783006 -0.058039773 0.12707116 0.023861697 -0.06074701 -0.10230728 0.049528655 0.043006934
00000000: bdee d13d ddc4 113e 2827 75bc e296 72bc
00000010: 3e41 3fbc e773 6d3d 5814 363c 3f07 2ebe
00000020: da83 e0bd 1470 023e 493e d7bc 2604 c8bd
00000030: 8f57 823d 4dcd 043b 973d bfbd 907c bd3d
00000040: f993 f73c 12af 6c3d c07b cfbc 8ed5 8cbd
00000050: 45ea 16bd c62f cbbc f19b 0bbe 716f 9c3d
00000060: a072 2f3d 901f 683d b983 193e d3fa 9fbd
00000070: 9158 a13b 52a6 fa3d cb3e ae3d b2b7 6e3d
00000080: d55a 923d 5dab b6bd 3c58 4cbe 449b 75bd
00000090: 067e ef3c 68e9 893c e850 033e 78d8 48be
000000a0: 450c 3bbe 6252 b3bd b6ab e53d 61e6 7e3e
000000b0: 4c8f 36bc 16b5 f3bc 2233 fe3c d5cf b9bd
000000c0: c35c 20bd 914a 25be 9d7b 273d e786 6ebd
000000d0: 3631 883d b19a 063c ca0e 8b3d 8406 9d3d
000000e0: 9ca6 c63c 5e70 833c 8b1d 15be afe8 11be
000000f0: fcd4 383d 8989 f03d 4843 4d3d f06c 6dbd
00000100: aa9a 80bd 1d49 4b3b 73e5 363c b778 073e
00000110: a01e 163e 3279 d0bd 9e8a 313e e82b a6bc
00000120: 5886 abbc b294 963d 5992 4b3e 51b9 663e
00000130: 1cad 7cbd 0ffd 103e 72dc 89bd 3e80 cc3d
00000140: 079c e9bd 99d1 463c 3deb 92bd e6fb fdbd
00000150: b42d b03c 25a3 0a3e bd15 7abd 5b99 ee3a
00000160: 62a0 a93d dc9e 84bd 0de3 1d3e 48a8 943a
00000170: c886 04be 15fa 9fbd a3a9 aa3d f715 223c
00000180: ff6a f53b c41a c43d c00c 6abb 67df bf3d
00000190: 1c24 683c 2fe1 85bc 91a7 d53c 7777 633d
000001a0: 8afc b7bc 32b6 a4bd 0981 09bd c9bd 3f3e
000001b0: 8165 4fbc 7ebe 3ebc d386 aabd 8583 763c
000001c0: 7b01 293d cee0 5e3d c788 0bbd d66a 043d
000001d0: e372 9a3d d01b 5f3b 042a 02bd 24b1 08be
000001e0: 4626 15bd c49c 84bd c246 0ebe 9604 c1bd
000001f0: 045e 4c3d 4bcf 07be 30c2 0cbe ed4d 2dbd
00000200: 4d48 913c 630f 00bd aecc c23d 1447 163d
00000210: 72a8 abbd 4e80 193e 8c99 ca3c e531 1c3d
00000220: 08a0 6dbd 8153 4bbe 071f cd3c 2aee 673d
00000230: 6570 03bd bc6e 323e e644 863c ebc1 d13c
00000240: 0e28 963d 229c 2a3e 83ce 823d 40f4 9d3d
00000250: 5820 5cbe f205 b6bc 7f5e 0d3d ec7d 92bc
00000260: 14d2 483b 23d2 9f3d 7b4b 19be a793 5dbc
00000270: b715 07be ec42 293b 95e7 873d 7ae7 213e
00000280: 98e3 523b 1e11 2a3e e4a9 99bd ea5a 733d
00000290: 82f8 40be f9b2 983d 0c20 53bd 43e8 543e
000002a0: ca10 83bd f153 73bd 671f 8cbc 4c4f fcbc
000002b0: 5fd5 c03c ab1f efbd 098e 50bd 161a 1c3e
000002c0: d991 8cbd ba2f 6c3d c73a fcbd df5f 48be
000002d0: 6fe9 a93d 7b1c 853d bea1 953d 3a7d e53d
000002e0: b5f5 aebd 2b83 253e 2c8b 70bb bd6f 1dbe
000002f0: 3f3e eb3d 4cab 113e 2e17 083e d2fc 83bd
00000300: 7b0a 223d efc7 4abd 6eab 1b3e 35fd 7d3c
00000310: d514 d93d 39c2 8fbd 1f16 83be 8cad 043e
00000320: a6ec dc3c 6750 193d 7922 903c 1e33 dcbc
00000330: bcc6 05be 1df4 a93d 5de7 b2bd cab3 76bd
00000340: 1c60 43be 6601 41bd c3e4 923d 1199 a03d
00000350: 04be e73d dc48 583d 8ea4 483e 4448 653d
00000360: 4c92 fdbd a2d6 e93d 30f8 4cbd 6c3c cb3d
00000370: 1dae adbd daf3 40bd b7cb e93d e40b ffbd
00000380: fad9 f63d d675 88bd b93f 6c3c 0031 393c
00000390: d0fc 03be 7bbd 86bd c59d bd3c 2e07 f33d
000003a0: 8f86 0d3d 5027 10be cf1c bcbd 7b10 5a3d
000003b0: df76 b6bd 4343 223d a56a 55bd 5838 1e3e
000003c0: 5194 6fbe 50ca 0c3d 7fd5 27bd 4d11 62be
000003d0: 72af b33c 5e69 783d 8671 69bd e772 34be
000003e0: 115c a03d 1dbb 6dbd f11e 023e 9b79 c33c
000003f0: dbd1 78bd 7b86 d1bd 8fde 4a3d 0a28 303d

rnn.bias_ih_l1 f4 [115]
0.14184076 0.16227598 0.040332362 -0.013795296 -0.07844812 0.119393475 -0.086119734 0.020778818
0.03875657 0.05395539 -0.060670428 0.15109429 0.013355543 -0.09915716 0.045156736 -0.026432652
-0.094680846 -0.040221483 0.19204864 0.16591664 0.116083175 0.108022206 0.06711919 -0.18747278
-0.055967532 0.050553832 0.03558028 -0.1423863 0.012153073 0.047075186 -0.076422855 0.09973412
-0.10667832 0.055851664 -0.09147575 -0.044564057 0.111803144 0.03580281 -0.038262714 0.102508835
-0.04741985 -0.08288831 -0.09813775 0.20489573 -0.017207438 0.07275344 0.2257885 -0.18262851
-0.07573879 -0.016468389 0.070765875 -0.023983777 -0.15498286 0.089576125 -0.043447915 -0.09215731
-0.13127466 -0.046029165 -0.015015265 0.11956524 0.057553373 0.025005754 0.0143793505 -0.022707326
-0.14726724 -0.005771102 -0.12982887 -0.070658214 0.028763723 -0.03592272 -0.057270933 0.027788399
0.2428527 0.16722335 -0.1650569 0.012027465 -0.045341697 0.1937732 -0.040714756 -0.060467612
0.009807449 0.060690492 -0.026005063 -0.019584104 -0.017841935 -0.0051618805 -0.16172867 -0.06904779
0.12623662 -0.21399936 -0.07132517 0.05063242 0.057853475 0.010508444 0.028288972 0.02702847
-0.04747809 0.18159656 -0.007779014 0.028666394 0.008364177 -0.16808406 -0.059121072 0.046780836
-0.14227141 0.047190517 -0.0062459325 -0.0005999153 0.1075341 -0.068877265 0.107411966 0.0033035595
-0.089150526 -0.030277668 0.197036
00000000: b43e 113e ad2b 263e 8c33 253d aa05 62bc
00000010: 68a9 a0bd 9184 f43d 8b5f b0bd 5738 aa3c
00000020: 36bf 1e3d 5400 5d3d 8e81 78bd 76b8 1a3e
00000030: 35d1 5a3c e912 cbbd 45f6 383d 4a89 d8bc
00000040: 08e8 c1bd 48bf 24bd 66a8 443e 0de6 293e
00000050: 04bd ed3d bf3a dd3d c975 893d ddf8 3fbe
00000060: 363e 65bd 8911 4f3d a1bc 113d b7cd 11be
00000070: af1d 473c e9d1 403d 9683 9cbd 6741 cc3d
00000080: 2a7a dabd b7c4 643d a357 bbbd cd88 36bd
00000090: 0cf9 e43d f8a5 123d 5db9 1cbd 27f0 d13d
000000a0: 513b 42bd 59c1 a9bd 72fc c8bd 30d0 513e
000000b0: 9df6 8cbc c1ff 943d 1a35 673e f802 3bbe
000000c0: f01c 9bbd b7e8 86bc b3ed 903d a079 c4bc
000000d0: d4b3 1ebe b073 b73d 71f6 31bd f9bc bcbd
000000e0: dd6c 06be 1489 3cbd 9602 76bc 9fde f43d
000000f0: 16bd 6b3d ded8 cc3c 5e97 6b3c b704 babc
00000100: 39cd 16be 831b bdbb dcf1 04be 41b5 90bd
00000110: e6a1 eb3c b423 13bd ed94 6abd 7fa4 e33c
00000120: 61ae 783e 993c 2b3e ad04 29be d80e 453c
00000130: 37b8 39bd 7b6c 463e 84c4 26bd e3ac 77bd
00000140: 6caf 203c 9896 783d 9208 d5bc d86e a0bc
00000150: 4029 92bc fe24 a9bb 339c 25be ed68 8dbd
00000160: 2c44 013e a622 5bbe ee12 92bd f163 4f3d
00000170: c4f7 6c3d 9c2b 2c3c 46be e73c cf6a dd3c
00000180: 6378 42bd 73f4 393e 19e7 febb c9d5 ea3c
00000190: e709 093c 3a1e 2cbe f028 72bd 439d 3f3d
000001a0: 99af 11be d84a 413d aeaa ccbb a243 1dba
000001b0: d73a dc3d 860f 8dbd cefa db3d 8880 583b
000001c0: 8d94 b6bd df08 f8bc cec3 493e

rnn.bias_hh_l1 f4 [115]
0.038907293 0.06387127 0.047603063 0.063759916 -0.17516296 0.009780753 -0.15302785 0.021861643
0.09367182 -0.008813914 -0.050597258 0.19054216 -0.10219017 -0.031103235 0.014389212 -0.041307695
-0.025549568 0.106586486 0.17716816 0.103584334 0.0660522 0.18821688 0.10081475 -0.046125352
0.034597076 0.047772948 -0.074609704 -0.06573871 0.1073337 0.14799218 0.039190903 0.212422
-0.15855585 0.11242932 -0.17098768 -0.03496901 0.1065947 -0.1319997 -0.10180879 0.02540659
-0.16132134 -0.032855712 0.0668358 0.030228844 -0.17346 0.075293995 0.20026803 -0.14769845
-0.09523338 -0.022085665 0.05341063 -0.14943816 -0.13691996 0.21973406 0.024033723 0.015183125
-0.111539565 0.098610915 0.10849047 0.07092703 0.08841946 -0.14827088 -0.037516203 0.021900283
-0.026395794 -0.04249731 -0.09780449 -0.118727095 0.02453791 -0.078307316 -0.041963983 -0.022932703
0.17690758 0.225115 -0.080295235 -0.00064408185 -0.05537456 0.13310775 0.0854209 -0.047066998
-0.15090959 0.15034701 -0.06392299 -0.032045 0.11957568 0.0048831333 -0.012203945 -0.107786275
0.13517453 -0.14494604 0.02122394 0.040020373 0.04766932 0.04120149 0.19741523 0.09388829
0.044030707 0.16768022 -0.12681228 0.07578945 0.11867278 -0.046864156 -0.06164121 0.050495367
-0.017896213 0.066146724 -0.016917448 -0.044812743 0.09379906 -0.00033549708 0.12313287 -0.023925517
-0.2313388 0.020241449 0.1378994
00000000: 415d 1f3d f1ce 823d 6efb 423d 8f94 823d
00000010: eb5d 33be 743f 203c 55b3 1cbe 3017 b33c
00000020: 03d7 bf3d 3c68 10bc 123f 4fbd 7c1d 433e
00000030: 1449 d1bd 36cc febc bbc0 6b3c 4232 29bd
00000040: 544d d1bc 044a da3d 926b 353e 0624 d43d
00000050: 6046 873d edbb 403e f777 ce3d f0ed 3cbd
00000060: aab5 0d3d 91ad 433d f9cc 98bd 04a2 86bd
00000070: c5d1 db3d 438b 173e a486 203d 2785 593e
00000080: 775c 22be 5841 e63d 6517 2fbe aa3b 0fbd
00000090: 524e da3d ee2a 07be 2081 d0bd 7b21 d03c
000000a0: 6c31 25be b693 06bd 35e1 883d 7ba2 f73c
000000b0: 809f 31be bd33 9a3d 1013 4d3e 433e 17be
000000c0: b809 c3bd ffec b4bc 1bc5 5a3d 5106 19be
000000d0: bf34 0cbe f701 613e 5fe2 c43c a4c2 783c
000000e0: db6e e4bd 85f4 c93d 4030 de3d 3142 913d
000000f0: 4315 b53d 52d4 17be 97aa 19bd 3968 b33c
00000100: fe3b d8bc a911 2ebd b84d c8bd 3127 f3bd
00000110: ba03 c93c 965f a0bd 6de2 2bbd 5ddd bbbc
00000120: 4327 353e 8c84 663e d471 a4bd 9ad7 28ba
00000130: 6fd0 62bd 664d 083e 27f1 ae3d 53c9 40bd
00000140: 0b88 1abe 91f4 193e 0eea 82bd 9e41 03bd
00000150: 18e4 f43d b102 a03b 0ef3 47bc 0dbf dcbd
00000160: 316b 0a3e bc6c 14be d4dd ad3c 67ec 233d
00000170: e840 433d e5c2 283d 3827 4a3e 8148 c03d
00000180: 8b59 343d 5db4 2b3e 14db 01be 8037 9b3d
00000190: b70a f33d a1f4 3fbd 7e7b 7cbd 3bd4 4e3d
000001a0: 149b 92bc ef77 873d 7696 8abc 918d 37bd
000001b0: b919 c03d a8e5 afb9 162d fc3d 72ff c3bc
000001c0: 14e4 6cbe 65d1 a53c 8035 0d3e
